…
I0413 20:03:37.167624 122357 net.cpp:253] The NetState phase (0) differed from the phase (1) specified by a rule in layer mnist
I0413 20:03:37.167649 122357 net.cpp:253] The NetState phase (0) differed from the phase (1) specified by a rule in layer accuracy
I0413 20:03:37.167873 122357 net.cpp:42] Initializing net from parameters: 
name: "LeNet"
state {
  phase: TRAIN
}
layer {
  name: "mnist"
  type: "Data"
  top: "data"
  top: "label"
  include {
    phase: TRAIN
  }
  transform_param {
    scale: 0.00390625
  }
  data_param {
    source: "mnist_train_lmdb"
    batch_size: 64
    backend: LMDB
  }
}
layer {
  name: "conv1"
  type: "Convolution"
  bottom: "data"
  top: "conv1"
  param {
    lr_mult: 1
  }
  param {
    lr_mult: 2
  }
  convolution_param {
    num_output: 20
    kernel_size: 5
    stride: 1
    weight_filler {
      type: "xavier"
    }
    bias_filler {
      type: "constant"
    }
  }
}
layer {
  name: "pool1"
  type: "Pooling"
  bottom: "conv1"
  top: "pool1"
  pooling_param {
    pool: MAX
    kernel_size: 2
    stride: 2
  }
}
layer {
  name: "conv2"
  type: "Convolution"
  bottom: "pool1"
  top: "conv2"
  param {
    lr_mult: 1
  }
  param {
    lr_mult: 2
  }
  convolution_param {
    num_output: 50
    kernel_size: 5
    stride: 1
    weight_filler {
      type: "xavier"
    }
    bias_filler {
      type: "constant"
    }
  }
}
layer {
  name: "pool2"
  type: "Pooling"
  bottom: "conv2"
  top: "pool2"
  pooling_param {
    pool: MAX
    kernel_size: 2
    stride: 2
  }
}
layer {
  name: "ip1"
  type: "InnerProduct"
  bottom: "pool2"
  top: "ip1"
  param {
    lr_mult: 1
  }
  param {
    lr_mult: 2
  }
  inner_product_param {
    num_output: 500
    weight_filler {
      type: "xavier"
    }
    bias_filler {
      type: "constant"
    }
  }
}
layer {
  name: "relu1"
  type: "ReLU"
  bottom: "ip1"
  top: "ip1"
}
layer {
  name: "ip2"
  type: "InnerProduct"
  bottom: "ip1"
  top: "ip2"
  param {
    lr_mult: 1
  }
  param {
    lr_mult: 2
  }
  inner_product_param {
    num_output: 10
    weight_filler {
      type: "xavier"
    }
    bias_filler {
      type: "constant"
    }
  }
}
layer {
  name: "loss"
  type: "SoftmaxWithLoss"
  bottom: "ip2"
  bottom: "label"
  top: "loss"
}
I0413 20:03:37.168001 122357 layer_factory.hpp:74] Creating layer mnist
I0413 20:03:37.168031 122357 net.cpp:76] Creating Layer mnist
I0413 20:03:37.168043 122357 net.cpp:334] mnist -> data
I0413 20:03:37.168093 122357 net.cpp:334] mnist -> label
I0413 20:03:37.168110 122357 net.cpp:105] Setting up mnist
I0413 20:03:37.168234 122357 db.cpp:34] Opened lmdb mnist_train_lmdb
I0413 20:03:37.168298 122357 data_layer.cpp:67] output data size: 64,1,28,28
I0413 20:03:37.168483 122357 net.cpp:112] Top shape: 64 1 28 28 (50176)
I0413 20:03:37.168494 122357 net.cpp:112] Top shape: 64 1 1 1 (64)
I0413 20:03:37.168504 122357 layer_factory.hpp:74] Creating layer conv1
I0413 20:03:37.168526 122357 net.cpp:76] Creating Layer conv1
I0413 20:03:37.168534 122357 net.cpp:372] conv1 <- data
I0413 20:03:37.168557 122357 net.cpp:334] conv1 -> conv1
I0413 20:03:37.168577 122357 net.cpp:105] Setting up conv1
I0413 20:03:37.169255 122357 net.cpp:112] Top shape: 64 20 24 24 (737280)
I0413 20:03:37.169292 122357 layer_factory.hpp:74] Creating layer pool1
I0413 20:03:37.169307 122357 net.cpp:76] Creating Layer pool1
I0413 20:03:37.169316 122357 net.cpp:372] pool1 <- conv1
I0413 20:03:37.169325 122357 net.cpp:334] pool1 -> pool1
I0413 20:03:37.169340 122357 net.cpp:105] Setting up pool1
I0413 20:03:37.169363 122357 net.cpp:112] Top shape: 64 20 12 12 (184320)
I0413 20:03:37.169392 122357 layer_factory.hpp:74] Creating layer conv2
I0413 20:03:37.169407 122357 net.cpp:76] Creating Layer conv2
I0413 20:03:37.169416 122357 net.cpp:372] conv2 <- pool1
I0413 20:03:37.169430 122357 net.cpp:334] conv2 -> conv2
I0413 20:03:37.169443 122357 net.cpp:105] Setting up conv2
I0413 20:03:37.169719 122357 net.cpp:112] Top shape: 64 50 8 8 (204800)
I0413 20:03:37.169739 122357 layer_factory.hpp:74] Creating layer pool2
I0413 20:03:37.169772 122357 net.cpp:76] Creating Layer pool2
I0413 20:03:37.169781 122357 net.cpp:372] pool2 <- conv2
I0413 20:03:37.169791 122357 net.cpp:334] pool2 -> pool2
I0413 20:03:37.169806 122357 net.cpp:105] Setting up pool2
I0413 20:03:37.169817 122357 net.cpp:112] Top shape: 64 50 4 4 (51200)
I0413 20:03:37.169826 122357 layer_factory.hpp:74] Creating layer ip1
I0413 20:03:37.169847 122357 net.cpp:76] Creating Layer ip1
I0413 20:03:37.169857 122357 net.cpp:372] ip1 <- pool2
I0413 20:03:37.169872 122357 net.cpp:334] ip1 -> ip1
I0413 20:03:37.169890 122357 net.cpp:105] Setting up ip1
I0413 20:03:37.175127 122357 net.cpp:112] Top shape: 64 500 1 1 (32000)
I0413 20:03:37.175148 122357 layer_factory.hpp:74] Creating layer relu1
I0413 20:03:37.175163 122357 net.cpp:76] Creating Layer relu1
I0413 20:03:37.175169 122357 net.cpp:372] relu1 <- ip1
I0413 20:03:37.175179 122357 net.cpp:323] relu1 -> ip1 (in-place)
I0413 20:03:37.175191 122357 net.cpp:105] Setting up relu1
I0413 20:03:37.175204 122357 net.cpp:112] Top shape: 64 500 1 1 (32000)
I0413 20:03:37.175211 122357 layer_factory.hpp:74] Creating layer ip2
I0413 20:03:37.175221 122357 net.cpp:76] Creating Layer ip2
I0413 20:03:37.175228 122357 net.cpp:372] ip2 <- ip1
I0413 20:03:37.175238 122357 net.cpp:334] ip2 -> ip2
I0413 20:03:37.175251 122357 net.cpp:105] Setting up ip2
I0413 20:03:37.175335 122357 net.cpp:112] Top shape: 64 10 1 1 (640)
I0413 20:03:37.175348 122357 layer_factory.hpp:74] Creating layer loss
I0413 20:03:37.175369 122357 net.cpp:76] Creating Layer loss
I0413 20:03:37.175374 122357 net.cpp:372] loss <- ip2
I0413 20:03:37.175381 122357 net.cpp:372] loss <- label
I0413 20:03:37.175395 122357 net.cpp:334] loss -> loss
I0413 20:03:37.175407 122357 net.cpp:105] Setting up loss
I0413 20:03:37.175417 122357 layer_factory.hpp:74] Creating layer loss
I0413 20:03:37.175442 122357 net.cpp:112] Top shape: 1 1 1 1 (1)
I0413 20:03:37.175448 122357 net.cpp:118]     with loss weight 1
I0413 20:03:37.175477 122357 net.cpp:163] loss needs backward computation.
I0413 20:03:37.175484 122357 net.cpp:163] ip2 needs backward computation.
I0413 20:03:37.175492 122357 net.cpp:163] relu1 needs backward computation.
I0413 20:03:37.175498 122357 net.cpp:163] ip1 needs backward computation.
I0413 20:03:37.175503 122357 net.cpp:163] pool2 needs backward computation.
…
I0413 20:03:37.176009 122357 solver.cpp:154] Creating test net (#0) specified by net file: lenet_train_test.prototxt
I0413 20:03:37.176045 122357 net.cpp:253] The NetState phase (1) differed from the phase (0) specified by a rule in layer mnist
I0413 20:03:37.176241 122357 net.cpp:42] Initializing net from parameters: 
name: "LeNet"
state {
  phase: TEST
}
layer {
  name: "mnist"
  type: "Data"
  top: "data"
  top: "label"
  include {
    phase: TEST
  }
  transform_param {
    scale: 0.00390625
  }
  data_param {
    source: "mnist_test_lmdb"
    batch_size: 100
    backend: LMDB
  }
}
layer {
  name: "conv1"
  type: "Convolution"
  bottom: "data"
  top: "conv1"
  param {
    lr_mult: 1
  }
  param {
    lr_mult: 2
  }
  convolution_param {
    num_output: 20
    kernel_size: 5
    stride: 1
    weight_filler {
      type: "xavier"
    }
    bias_filler {
      type: "constant"
    }
  }
}
layer {
  name: "pool1"
  type: "Pooling"
  bottom: "conv1"
  top: "pool1"
  pooling_param {
    pool: MAX
    kernel_size: 2
    stride: 2
  }
}
layer {
  name: "conv2"
  type: "Convolution"
  bottom: "pool1"
  top: "conv2"
  param {
    lr_mult: 1
  }
  param {
    lr_mult: 2
  }
  convolution_param {
    num_output: 50
    kernel_size: 5
    stride: 1
    weight_filler {
      type: "xavier"
    }
    bias_filler {
      type: "constant"
    }
  }
}
layer {
  name: "pool2"
  type: "Pooling"
  bottom: "conv2"
  top: "pool2"
  pooling_param {
    pool: MAX
    kernel_size: 2
    stride: 2
  }
}
layer {
  name: "ip1"
  type: "InnerProduct"
  bottom: "pool2"
  top: "ip1"
  param {
    lr_mult: 1
  }
  param {
    lr_mult: 2
  }
  inner_product_param {
    num_output: 500
    weight_filler {
      type: "xavier"
    }
    bias_filler {
      type: "constant"
    }
  }
}
layer {
  name: "relu1"
  type: "ReLU"
  bottom: "ip1"
  top: "ip1"
}
layer {
  name: "ip2"
  type: "InnerProduct"
  bottom: "ip1"
  top: "ip2"
  param {
    lr_mult: 1
  }
  param {
    lr_mult: 2
  }
  inner_product_param {
    num_output: 10
    weight_filler {
      type: "xavier"
    }
    bias_filler {
      type: "constant"
    }
  }
}
layer {
  name: "accuracy"
  type: "Accuracy"
  bottom: "ip2"
  bottom: "label"
  top: "accuracy"
  include {
    phase: TEST
  }
}
layer {
  name: "loss"
  type: "SoftmaxWithLoss"
  bottom: "ip2"
  bottom: "label"
  top: "loss"
}
I0413 20:03:37.176379 122357 layer_factory.hpp:74] Creating layer mnist
I0413 20:03:37.176393 122357 net.cpp:76] Creating Layer mnist
I0413 20:03:37.176403 122357 net.cpp:334] mnist -> data
I0413 20:03:37.176420 122357 net.cpp:334] mnist -> label
I0413 20:03:37.176431 122357 net.cpp:105] Setting up mnist
I0413 20:03:37.176481 122357 db.cpp:34] Opened lmdb mnist_test_lmdb
I0413 20:03:37.176511 122357 data_layer.cpp:67] output data size: 100,1,28,28
I0413 20:03:37.176703 122357 net.cpp:112] Top shape: 100 1 28 28 (78400)
I0413 20:03:37.176713 122357 net.cpp:112] Top shape: 100 1 1 1 (100)
I0413 20:03:37.176722 122357 layer_factory.hpp:74] Creating layer label_mnist_1_split
I0413 20:03:37.176738 122357 net.cpp:76] Creating Layer label_mnist_1_split
I0413 20:03:37.176760 122357 net.cpp:372] label_mnist_1_split <- label
I0413 20:03:37.176771 122357 net.cpp:334] label_mnist_1_split -> label_mnist_1_split_0
I0413 20:03:37.176786 122357 net.cpp:334] label_mnist_1_split -> label_mnist_1_split_1
I0413 20:03:37.176796 122357 net.cpp:105] Setting up label_mnist_1_split
I0413 20:03:37.176808 122357 net.cpp:112] Top shape: 100 1 1 1 (100)
I0413 20:03:37.176816 122357 net.cpp:112] Top shape: 100 1 1 1 (100)
I0413 20:03:37.176825 122357 layer_factory.hpp:74] Creating layer conv1
I0413 20:03:37.176841 122357 net.cpp:76] Creating Layer conv1
I0413 20:03:37.176847 122357 net.cpp:372] conv1 <- data
I0413 20:03:37.176859 122357 net.cpp:334] conv1 -> conv1
I0413 20:03:37.176873 122357 net.cpp:105] Setting up conv1
I0413 20:03:37.176903 122357 net.cpp:112] Top shape: 100 20 24 24 (1152000)
I0413 20:03:37.176918 122357 layer_factory.hpp:74] Creating layer pool1
I0413 20:03:37.176933 122357 net.cpp:76] Creating Layer pool1
I0413 20:03:37.176939 122357 net.cpp:372] pool1 <- conv1
I0413 20:03:37.176949 122357 net.cpp:334] pool1 -> pool1
I0413 20:03:37.176959 122357 net.cpp:105] Setting up pool1
I0413 20:03:37.176970 122357 net.cpp:112] Top shape: 100 20 12 12 (288000)
I0413 20:03:37.176977 122357 layer_factory.hpp:74] Creating layer conv2
I0413 20:03:37.176992 122357 net.cpp:76] Creating Layer conv2
I0413 20:03:37.176998 122357 net.cpp:372] conv2 <- pool1
I0413 20:03:37.177019 122357 net.cpp:334] conv2 -> conv2
I0413 20:03:37.177031 122357 net.cpp:105] Setting up conv2
I0413 20:03:37.177286 122357 net.cpp:112] Top shape: 100 50 8 8 (320000)
I0413 20:03:37.177304 122357 layer_factory.hpp:74] Creating layer pool2
I0413 20:03:37.177325 122357 net.cpp:76] Creating Layer pool2
I0413 20:03:37.177333 122357 net.cpp:372] pool2 <- conv2
I0413 20:03:37.177346 122357 net.cpp:334] pool2 -> pool2
I0413 20:03:37.177357 122357 net.cpp:105] Setting up pool2
I0413 20:03:37.177366 122357 net.cpp:112] Top shape: 100 50 4 4 (80000)
I0413 20:03:37.177376 122357 layer_factory.hpp:74] Creating layer ip1
I0413 20:03:37.177386 122357 net.cpp:76] Creating Layer ip1
I0413 20:03:37.177392 122357 net.cpp:372] ip1 <- pool2
I0413 20:03:37.177405 122357 net.cpp:334] ip1 -> ip1
I0413 20:03:37.177417 122357 net.cpp:105] Setting up ip1
I0413 20:03:37.181641 122357 net.cpp:112] Top shape: 100 500 1 1 (50000)
I0413 20:03:37.181661 122357 layer_factory.hpp:74] Creating layer relu1
I0413 20:03:37.181674 122357 net.cpp:76] Creating Layer relu1
I0413 20:03:37.181680 122357 net.cpp:372] relu1 <- ip1
I0413 20:03:37.181689 122357 net.cpp:323] relu1 -> ip1 (in-place)
I0413 20:03:37.181700 122357 net.cpp:105] Setting up relu1
I0413 20:03:37.181709 122357 net.cpp:112] Top shape: 100 500 1 1 (50000)
I0413 20:03:37.181715 122357 layer_factory.hpp:74] Creating layer ip2
I0413 20:03:37.181730 122357 net.cpp:76] Creating Layer ip2
I0413 20:03:37.181737 122357 net.cpp:372] ip2 <- ip1
I0413 20:03:37.181746 122357 net.cpp:334] ip2 -> ip2
I0413 20:03:37.181759 122357 net.cpp:105] Setting up ip2
I0413 20:03:37.181824 122357 net.cpp:112] Top shape: 100 10 1 1 (1000)
I0413 20:03:37.181836 122357 layer_factory.hpp:74] Creating layer ip2_ip2_0_split
I0413 20:03:37.181848 122357 net.cpp:76] Creating Layer ip2_ip2_0_split
I0413 20:03:37.181854 122357 net.cpp:372] ip2_ip2_0_split <- ip2
I0413 20:03:37.181864 122357 net.cpp:334] ip2_ip2_0_split -> ip2_ip2_0_split_0
I0413 20:03:37.181876 122357 net.cpp:334] ip2_ip2_0_split -> ip2_ip2_0_split_1
I0413 20:03:37.181886 122357 net.cpp:105] Setting up ip2_ip2_0_split
I0413 20:03:37.181895 122357 net.cpp:112] Top shape: 100 10 1 1 (1000)
I0413 20:03:37.181901 122357 net.cpp:112] Top shape: 100 10 1 1 (1000)
I0413 20:03:37.181908 122357 layer_factory.hpp:74] Creating layer accuracy
I0413 20:03:37.181926 122357 net.cpp:76] Creating Layer accuracy
I0413 20:03:37.181932 122357 net.cpp:372] accuracy <- ip2_ip2_0_split_0
I0413 20:03:37.181941 122357 net.cpp:372] accuracy <- label_mnist_1_split_0
I0413 20:03:37.181951 122357 net.cpp:334] accuracy -> accuracy
I0413 20:03:37.181963 122357 net.cpp:105] Setting up accuracy
I0413 20:03:37.181973 122357 net.cpp:112] Top shape: 1 1 1 1 (1)
I0413 20:03:37.181982 122357 layer_factory.hpp:74] Creating layer loss
I0413 20:03:37.181990 122357 net.cpp:76] Creating Layer loss
I0413 20:03:37.181998 122357 net.cpp:372] loss <- ip2_ip2_0_split_1
I0413 20:03:37.182005 122357 net.cpp:372] loss <- label_mnist_1_split_1
I0413 20:03:37.182015 122357 net.cpp:334] loss -> loss
I0413 20:03:37.182026 122357 net.cpp:105] Setting up loss
I0413 20:03:37.182036 122357 layer_factory.hpp:74] Creating layer loss
I0413 20:03:37.182057 122357 net.cpp:112] Top shape: 1 1 1 1 (1)
I0413 20:03:37.182065 122357 net.cpp:118]     with loss weight 1
I0413 20:03:37.182075 122357 net.cpp:163] loss needs backward computation.
I0413 20:03:37.182083 122357 net.cpp:165] accuracy does not need backward computation.
I0413 20:03:37.182090 122357 net.cpp:163] ip2_ip2_0_split needs backward computation.
I0413 20:03:37.182096 122357 net.cpp:163] ip2 needs backward computation.
I0413 20:03:37.182102 122357 net.cpp:163] relu1 needs backward computation.
…
